…
save_latest_freq: 1000
serial_batches: False
tf_log: False
tv_weight: 0.1
use_dropout: False
verbose: False
which_epoch: latest
-------------- End ----------------
dataset [AlignedDataset] was created
../dataset/Flow-Style-VTON/VITON_traindata/train_label label
../dataset/Flow-Style-VTON/VITON_traindata/train_img img
../dataset/Flow-Style-VTON/VITON_traindata/train_edge edge
../dataset/Flow-Style-VTON/VITON_traindata/train_color color
AFWM(
  (image_features): FeatureEncoder(
    (encoders): ModuleList(
      (0): Sequential(
        (0): DownSample(
          (block): Sequential(
            (0): BatchNorm2d(3, eps=1e-05, momentum=0.1, affine=True, track_running_stats=True)
            (1): ReLU(inplace=True)
            (2): Conv2d(3, 64, kernel_size=(3, 3), stride=(2, 2), padding=(1, 1), bias=False)
          )
        )
        (1): ResBlock(
          (block): Sequential(
            (0): BatchNorm2d(64, eps=1e-05, momentum=0.1, affine=True, track_running_stats=True)
            (1): ReLU(inplace=True)
            (2): Conv2d(64, 64, kernel_size=(3, 3), stride=(1, 1), padding=(1, 1), bias=False)
            (3): BatchNorm2d(64, eps=1e-05, momentum=0.1, affine=True, track_running_stats=True)
            (4): ReLU(inplace=True)
            (5): Conv2d(64, 64, kernel_size=(3, 3), stride=(1, 1), padding=(1, 1), bias=False)
          )
        )
        (2): ResBlock(
          (block): Sequential(
            (0): BatchNorm2d(64, eps=1e-05, momentum=0.1, affine=True, track_running_stats=True)
            (1): ReLU(inplace=True)
            (2): Conv2d(64, 64, kernel_size=(3, 3), stride=(1, 1), padding=(1, 1), bias=False)
            (3): BatchNorm2d(64, eps=1e-05, momentum=0.1, affine=True, track_running_stats=True)
            (4): ReLU(inplace=True)
            (5): Conv2d(64, 64, kernel_size=(3, 3), stride=(1, 1), padding=(1, 1), bias=False)
          )
        )
      )
      (1): Sequential(
        (0): DownSample(
          (block): Sequential(
            (0): BatchNorm2d(64, eps=1e-05, momentum=0.1, affine=True, track_running_stats=True)
            (1): ReLU(inplace=True)
            (2): Conv2d(64, 128, kernel_size=(3, 3), stride=(2, 2), padding=(1, 1), bias=False)
          )
        )
        (1): ResBlock(
          (block): Sequential(
            (0): BatchNorm2d(128, eps=1e-05, momentum=0.1, affine=True, track_running_stats=True)
            (1): ReLU(inplace=True)
            (2): Conv2d(128, 128, kernel_size=(3, 3), stride=(1, 1), padding=(1, 1), bias=False)
            (3): BatchNorm2d(128, eps=1e-05, momentum=0.1, affine=True, track_running_stats=True)
            (4): ReLU(inplace=True)
            (5): Conv2d(128, 128, kernel_size=(3, 3), stride=(1, 1), padding=(1, 1), bias=False)
          )
        )
        (2): ResBlock(
          (block): Sequential(
            (0): BatchNorm2d(128, eps=1e-05, momentum=0.1, affine=True, track_running_stats=True)
            (1): ReLU(inplace=True)
            (2): Conv2d(128, 128, kernel_size=(3, 3), stride=(1, 1), padding=(1, 1), bias=False)
            (3): BatchNorm2d(128, eps=1e-05, momentum=0.1, affine=True, track_running_stats=True)
            (4): ReLU(inplace=True)
            (5): Conv2d(128, 128, kernel_size=(3, 3), stride=(1, 1), padding=(1, 1), bias=False)
          )
        )
      )
      (2): Sequential(
        (0): DownSample(
          (block): Sequential(
            (0): BatchNorm2d(128, eps=1e-05, momentum=0.1, affine=True, track_running_stats=True)
            (1): ReLU(inplace=True)
            (2): Conv2d(128, 256, kernel_size=(3, 3), stride=(2, 2), padding=(1, 1), bias=False)
          )
        )
        (1): ResBlock(
          (block): Sequential(
            (0): BatchNorm2d(256, eps=1e-05, momentum=0.1, affine=True, track_running_stats=True)
            (1): ReLU(inplace=True)
            (2): Conv2d(256, 256, kernel_size=(3, 3), stride=(1, 1), padding=(1, 1), bias=False)
            (3): BatchNorm2d(256, eps=1e-05, momentum=0.1, affine=True, track_running_stats=True)
            (4): ReLU(inplace=True)
            (5): Conv2d(256, 256, kernel_size=(3, 3), stride=(1, 1), padding=(1, 1), bias=False)
          )
        )
        (2): ResBlock(
          (block): Sequential(
            (0): BatchNorm2d(256, eps=1e-05, momentum=0.1, affine=True, track_running_stats=True)
            (1): ReLU(inplace=True)
            (2): Conv2d(256, 256, kernel_size=(3, 3), stride=(1, 1), padding=(1, 1), bias=False)
            (3): BatchNorm2d(256, eps=1e-05, momentum=0.1, affine=True, track_running_stats=True)
            (4): ReLU(inplace=True)
            (5): Conv2d(256, 256, kernel_size=(3, 3), stride=(1, 1), padding=(1, 1), bias=False)
          )
        )
      )
      (3): Sequential(
        (0): DownSample(
          (block): Sequential(
            (0): BatchNorm2d(256, eps=1e-05, momentum=0.1, affine=True, track_running_stats=True)
            (1): ReLU(inplace=True)
            (2): Conv2d(256, 256, kernel_size=(3, 3), stride=(2, 2), padding=(1, 1), bias=False)
          )
        )
        (1): ResBlock(
          (block): Sequential(
            (0): BatchNorm2d(256, eps=1e-05, momentum=0.1, affine=True, track_running_stats=True)
            (1): ReLU(inplace=True)
            (2): Conv2d(256, 256, kernel_size=(3, 3), stride=(1, 1), padding=(1, 1), bias=False)
            (3): BatchNorm2d(256, eps=1e-05, momentum=0.1, affine=True, track_running_stats=True)
            (4): ReLU(inplace=True)
            (5): Conv2d(256, 256, kernel_size=(3, 3), stride=(1, 1), padding=(1, 1), bias=False)
          )
        )
        (2): ResBlock(
          (block): Sequential(
            (0): BatchNorm2d(256, eps=1e-05, momentum=0.1, affine=True, track_running_stats=True)
            (1): ReLU(inplace=True)
            (2): Conv2d(256, 256, kernel_size=(3, 3), stride=(1, 1), padding=(1, 1), bias=False)
            (3): BatchNorm2d(256, eps=1e-05, momentum=0.1, affine=True, track_running_stats=True)
            (4): ReLU(inplace=True)
            (5): Conv2d(256, 256, kernel_size=(3, 3), stride=(1, 1), padding=(1, 1), bias=False)
          )
        )
      )
      (4): Sequential(
        (0): DownSample(
          (block): Sequential(
            (0): BatchNorm2d(256, eps=1e-05, momentum=0.1, affine=True, track_running_stats=True)
            (1): ReLU(inplace=True)
            (2): Conv2d(256, 256, kernel_size=(3, 3), stride=(2, 2), padding=(1, 1), bias=False)
          )
        )
        (1): ResBlock(
          (block): Sequential(
            (0): BatchNorm2d(256, eps=1e-05, momentum=0.1, affine=True, track_running_stats=True)
            (1): ReLU(inplace=True)
            (2): Conv2d(256, 256, kernel_size=(3, 3), stride=(1, 1), padding=(1, 1), bias=False)
            (3): BatchNorm2d(256, eps=1e-05, momentum=0.1, affine=True, track_running_stats=True)
            (4): ReLU(inplace=True)
            (5): Conv2d(256, 256, kernel_size=(3, 3), stride=(1, 1), padding=(1, 1), bias=False)
          )
        )
        (2): ResBlock(
          (block): Sequential(
            (0): BatchNorm2d(256, eps=1e-05, momentum=0.1, affine=True, track_running_stats=True)
            (1): ReLU(inplace=True)
            (2): Conv2d(256, 256, kernel_size=(3, 3), stride=(1, 1), padding=(1, 1), bias=False)
            (3): BatchNorm2d(256, eps=1e-05, momentum=0.1, affine=True, track_running_stats=True)
            (4): ReLU(inplace=True)
            (5): Conv2d(256, 256, kernel_size=(3, 3), stride=(1, 1), padding=(1, 1), bias=False)
          )
        )
      )
    )
  )
  (cond_features): FeatureEncoder(
    (encoders): ModuleList(
      (0): Sequential(
        (0): DownSample(
          (block): Sequential(
            (0): BatchNorm2d(45, eps=1e-05, momentum=0.1, affine=True, track_running_stats=True)
            (1): ReLU(inplace=True)
            (2): Conv2d(45, 64, kernel_size=(3, 3), stride=(2, 2), padding=(1, 1), bias=False)
          )
        )
        (1): ResBlock(
          (block): Sequential(
            (0): BatchNorm2d(64, eps=1e-05, momentum=0.1, affine=True, track_running_stats=True)
            (1): ReLU(inplace=True)
            (2): Conv2d(64, 64, kernel_size=(3, 3), stride=(1, 1), padding=(1, 1), bias=False)
            (3): BatchNorm2d(64, eps=1e-05, momentum=0.1, affine=True, track_running_stats=True)
            (4): ReLU(inplace=True)
            (5): Conv2d(64, 64, kernel_size=(3, 3), stride=(1, 1), padding=(1, 1), bias=False)
          )
        )
        (2): ResBlock(
          (block): Sequential(
            (0): BatchNorm2d(64, eps=1e-05, momentum=0.1, affine=True, track_running_stats=True)
            (1): ReLU(inplace=True)
            (2): Conv2d(64, 64, kernel_size=(3, 3), stride=(1, 1), padding=(1, 1), bias=False)
            (3): BatchNorm2d(64, eps=1e-05, momentum=0.1, affine=True, track_running_stats=True)
            (4): ReLU(inplace=True)
            (5): Conv2d(64, 64, kernel_size=(3, 3), stride=(1, 1), padding=(1, 1), bias=False)
          )
        )
      )
      (1): Sequential(
        (0): DownSample(
          (block): Sequential(
            (0): BatchNorm2d(64, eps=1e-05, momentum=0.1, affine=True, track_running_stats=True)
            (1): ReLU(inplace=True)
            (2): Conv2d(64, 128, kernel_size=(3, 3), stride=(2, 2), padding=(1, 1), bias=False)
          )
        )
        (1): ResBlock(
          (block): Sequential(
            (0): BatchNorm2d(128, eps=1e-05, momentum=0.1, affine=True, track_running_stats=True)
            (1): ReLU(inplace=True)
            (2): Conv2d(128, 128, kernel_size=(3, 3), stride=(1, 1), padding=(1, 1), bias=False)
            (3): BatchNorm2d(128, eps=1e-05, momentum=0.1, affine=True, track_running_stats=True)
            (4): ReLU(inplace=True)
            (5): Conv2d(128, 128, kernel_size=(3, 3), stride=(1, 1), padding=(1, 1), bias=False)
          )
        )
        (2): ResBlock(
          (block): Sequential(
            (0): BatchNorm2d(128, eps=1e-05, momentum=0.1, affine=True, track_running_stats=True)
            (1): ReLU(inplace=True)
            (2): Conv2d(128, 128, kernel_size=(3, 3), stride=(1, 1), padding=(1, 1), bias=False)
            (3): BatchNorm2d(128, eps=1e-05, momentum=0.1, affine=True, track_running_stats=True)
            (4): ReLU(inplace=True)
            (5): Conv2d(128, 128, kernel_size=(3, 3), stride=(1, 1), padding=(1, 1), bias=False)
          )
        )
      )
      (2): Sequential(
        (0): DownSample(
          (block): Sequential(
            (0): BatchNorm2d(128, eps=1e-05, momentum=0.1, affine=True, track_running_stats=True)
            (1): ReLU(inplace=True)
            (2): Conv2d(128, 256, kernel_size=(3, 3), stride=(2, 2), padding=(1, 1), bias=False)
          )
        )
        (1): ResBlock(
          (block): Sequential(
            (0): BatchNorm2d(256, eps=1e-05, momentum=0.1, affine=True, track_running_stats=True)
            (1): ReLU(inplace=True)
            (2): Conv2d(256, 256, kernel_size=(3, 3), stride=(1, 1), padding=(1, 1), bias=False)
            (3): BatchNorm2d(256, eps=1e-05, momentum=0.1, affine=True, track_running_stats=True)
            (4): ReLU(inplace=True)
            (5): Conv2d(256, 256, kernel_size=(3, 3), stride=(1, 1), padding=(1, 1), bias=False)
          )
        )
        (2): ResBlock(
          (block): Sequential(
            (0): BatchNorm2d(256, eps=1e-05, momentum=0.1, affine=True, track_running_stats=True)
            (1): ReLU(inplace=True)
            (2): Conv2d(256, 256, kernel_size=(3, 3), stride=(1, 1), padding=(1, 1), bias=False)
            (3): BatchNorm2d(256, eps=1e-05, momentum=0.1, affine=True, track_running_stats=True)
            (4): ReLU(inplace=True)
            (5): Conv2d(256, 256, kernel_size=(3, 3), stride=(1, 1), padding=(1, 1), bias=False)
          )
        )
      )
      (3): Sequential(
        (0): DownSample(
          (block): Sequential(
            (0): BatchNorm2d(256, eps=1e-05, momentum=0.1, affine=True, track_running_stats=True)
            (1): ReLU(inplace=True)
            (2): Conv2d(256, 256, kernel_size=(3, 3), stride=(2, 2), padding=(1, 1), bias=False)
          )
        )
        (1): ResBlock(
          (block): Sequential(
            (0): BatchNorm2d(256, eps=1e-05, momentum=0.1, affine=True, track_running_stats=True)
            (1): ReLU(inplace=True)
            (2): Conv2d(256, 256, kernel_size=(3, 3), stride=(1, 1), padding=(1, 1), bias=False)
            (3): BatchNorm2d(256, eps=1e-05, momentum=0.1, affine=True, track_running_stats=True)
            (4): ReLU(inplace=True)
            (5): Conv2d(256, 256, kernel_size=(3, 3), stride=(1, 1), padding=(1, 1), bias=False)
          )
        )
        (2): ResBlock(
          (block): Sequential(
            (0): BatchNorm2d(256, eps=1e-05, momentum=0.1, affine=True, track_running_stats=True)
            (1): ReLU(inplace=True)
            (2): Conv2d(256, 256, kernel_size=(3, 3), stride=(1, 1), padding=(1, 1), bias=False)
            (3): BatchNorm2d(256, eps=1e-05, momentum=0.1, affine=True, track_running_stats=True)
            (4): ReLU(inplace=True)
            (5): Conv2d(256, 256, kernel_size=(3, 3), stride=(1, 1), padding=(1, 1), bias=False)
          )
        )
      )
      (4): Sequential(
        (0): DownSample(
          (block): Sequential(
            (0): BatchNorm2d(256, eps=1e-05, momentum=0.1, affine=True, track_running_stats=True)
            (1): ReLU(inplace=True)
            (2): Conv2d(256, 256, kernel_size=(3, 3), stride=(2, 2), padding=(1, 1), bias=False)
          )
        )
        (1): ResBlock(
          (block): Sequential(
            (0): BatchNorm2d(256, eps=1e-05, momentum=0.1, affine=True, track_running_stats=True)
            (1): ReLU(inplace=True)
            (2): Conv2d(256, 256, kernel_size=(3, 3), stride=(1, 1), padding=(1, 1), bias=False)
            (3): BatchNorm2d(256, eps=1e-05, momentum=0.1, affine=True, track_running_stats=True)
            (4): ReLU(inplace=True)
            (5): Conv2d(256, 256, kernel_size=(3, 3), stride=(1, 1), padding=(1, 1), bias=False)
          )
        )
        (2): ResBlock(
          (block): Sequential(
            (0): BatchNorm2d(256, eps=1e-05, momentum=0.1, affine=True, track_running_stats=True)
            (1): ReLU(inplace=True)
            (2): Conv2d(256, 256, kernel_size=(3, 3), stride=(1, 1), padding=(1, 1), bias=False)
            (3): BatchNorm2d(256, eps=1e-05, momentum=0.1, affine=True, track_running_stats=True)
            (4): ReLU(inplace=True)
            (5): Conv2d(256, 256, kernel_size=(3, 3), stride=(1, 1), padding=(1, 1), bias=False)
          )
        )
      )
    )
  )
  (image_FPN): RefinePyramid(
    (adaptive): ModuleList(
      (0): Conv2d(256, 256, kernel_size=(1, 1), stride=(1, 1))
      (1): Conv2d(256, 256, kernel_size=(1, 1), stride=(1, 1))
      (2): Conv2d(256, 256, kernel_size=(1, 1), stride=(1, 1))
      (3): Conv2d(128, 256, kernel_size=(1, 1), stride=(1, 1))
      (4): Conv2d(64, 256, kernel_size=(1, 1), stride=(1, 1))
    )
    (smooth): ModuleList(
      (0): Conv2d(256, 256, kernel_size=(3, 3), stride=(1, 1), padding=(1, 1))
      (1): Conv2d(256, 256, kernel_size=(3, 3), stride=(1, 1), padding=(1, 1))
      (2): Conv2d(256, 256, kernel_size=(3, 3), stride=(1, 1), padding=(1, 1))
      (3): Conv2d(256, 256, kernel_size=(3, 3), stride=(1, 1), padding=(1, 1))
      (4): Conv2d(256, 256, kernel_size=(3, 3), stride=(1, 1), padding=(1, 1))
    )
  )
  (cond_FPN): RefinePyramid(
    (adaptive): ModuleList(
      (0): Conv2d(256, 256, kernel_size=(1, 1), stride=(1, 1))
      (1): Conv2d(256, 256, kernel_size=(1, 1), stride=(1, 1))
      (2): Conv2d(256, 256, kernel_size=(1, 1), stride=(1, 1))
      (3): Conv2d(128, 256, kernel_size=(1, 1), stride=(1, 1))
      (4): Conv2d(64, 256, kernel_size=(1, 1), stride=(1, 1))
    )
    (smooth): ModuleList(
      (0): Conv2d(256, 256, kernel_size=(3, 3), stride=(1, 1), padding=(1, 1))
      (1): Conv2d(256, 256, kernel_size=(3, 3), stride=(1, 1), padding=(1, 1))
      (2): Conv2d(256, 256, kernel_size=(3, 3), stride=(1, 1), padding=(1, 1))
      (3): Conv2d(256, 256, kernel_size=(3, 3), stride=(1, 1), padding=(1, 1))
      (4): Conv2d(256, 256, kernel_size=(3, 3), stride=(1, 1), padding=(1, 1))
    )
  )
  (aflow_net): AFlowNet(
    (netRefine): ModuleList(
      (0): Sequential(
        (0): Conv2d(512, 128, kernel_size=(3, 3), stride=(1, 1), padding=(1, 1))
        (1): LeakyReLU(negative_slope=0.1)
        (2): Conv2d(128, 64, kernel_size=(3, 3), stride=(1, 1), padding=(1, 1))
        (3): LeakyReLU(negative_slope=0.1)
        (4): Conv2d(64, 32, kernel_size=(3, 3), stride=(1, 1), padding=(1, 1))
        (5): LeakyReLU(negative_slope=0.1)
        (6): Conv2d(32, 2, kernel_size=(3, 3), stride=(1, 1), padding=(1, 1))
      )
      (1): Sequential(
        (0): Conv2d(512, 128, kernel_size=(3, 3), stride=(1, 1), padding=(1, 1))
        (1): LeakyReLU(negative_slope=0.1)
        (2): Conv2d(128, 64, kernel_size=(3, 3), stride=(1, 1), padding=(1, 1))
        (3): LeakyReLU(negative_slope=0.1)
        (4): Conv2d(64, 32, kernel_size=(3, 3), stride=(1, 1), padding=(1, 1))
        (5): LeakyReLU(negative_slope=0.1)
        (6): Conv2d(32, 2, kernel_size=(3, 3), stride=(1, 1), padding=(1, 1))
      )
      (2): Sequential(
        (0): Conv2d(512, 128, kernel_size=(3, 3), stride=(1, 1), padding=(1, 1))
        (1): LeakyReLU(negative_slope=0.1)
        (2): Conv2d(128, 64, kernel_size=(3, 3), stride=(1, 1), padding=(1, 1))
        (3): LeakyReLU(negative_slope=0.1)
        (4): Conv2d(64, 32, kernel_size=(3, 3), stride=(1, 1), padding=(1, 1))
        (5): LeakyReLU(negative_slope=0.1)
        (6): Conv2d(32, 2, kernel_size=(3, 3), stride=(1, 1), padding=(1, 1))
      )
      (3): Sequential(
        (0): Conv2d(512, 128, kernel_size=(3, 3), stride=(1, 1), padding=(1, 1))
        (1): LeakyReLU(negative_slope=0.1)
        (2): Conv2d(128, 64, kernel_size=(3, 3), stride=(1, 1), padding=(1, 1))
        (3): LeakyReLU(negative_slope=0.1)
        (4): Conv2d(64, 32, kernel_size=(3, 3), stride=(1, 1), padding=(1, 1))
        (5): LeakyReLU(negative_slope=0.1)
        (6): Conv2d(32, 2, kernel_size=(3, 3), stride=(1, 1), padding=(1, 1))
      )
      (4): Sequential(
        (0): Conv2d(512, 128, kernel_size=(3, 3), stride=(1, 1), padding=(1, 1))
        (1): LeakyReLU(negative_slope=0.1)
        (2): Conv2d(128, 64, kernel_size=(3, 3), stride=(1, 1), padding=(1, 1))
        (3): LeakyReLU(negative_slope=0.1)
        (4): Conv2d(64, 32, kernel_size=(3, 3), stride=(1, 1), padding=(1, 1))
        (5): LeakyReLU(negative_slope=0.1)
        (6): Conv2d(32, 2, kernel_size=(3, 3), stride=(1, 1), padding=(1, 1))
      )
    )
    (netStyle): ModuleList(
      (0): StyledConvBlock(
        (conv0): ModulatedConv2d(
          (mlp_class_std): EqualLinear(
            (linear): Linear(in_features=256, out_features=256, bias=True)
          )
          (padding): ZeroPad2d(padding=(1, 1, 1, 1), value=0.0)
        )
        (actvn0): LeakyReLU(negative_slope=0.2, inplace=True)
        (conv1): ModulatedConv2d(
          (mlp_class_std): EqualLinear(
            (linear): Linear(in_features=256, out_features=49, bias=True)
          )
          (padding): ZeroPad2d(padding=(1, 1, 1, 1), value=0.0)
        )
        (actvn1): LeakyReLU(negative_slope=0.2, inplace=True)
      )
      (1): StyledConvBlock(
        (conv0): ModulatedConv2d(
          (mlp_class_std): EqualLinear(
            (linear): Linear(in_features=256, out_features=256, bias=True)
          )
          (padding): ZeroPad2d(padding=(1, 1, 1, 1), value=0.0)
        )
        (actvn0): LeakyReLU(negative_slope=0.2, inplace=True)
        (conv1): ModulatedConv2d(
          (mlp_class_std): EqualLinear(
            (linear): Linear(in_features=256, out_features=49, bias=True)
          )
          (padding): ZeroPad2d(padding=(1, 1, 1, 1), value=0.0)
        )
        (actvn1): LeakyReLU(negative_slope=0.2, inplace=True)
      )
      (2): StyledConvBlock(
        (conv0): ModulatedConv2d(
          (mlp_class_std): EqualLinear(
            (linear): Linear(in_features=256, out_features=256, bias=True)
          )
          (padding): ZeroPad2d(padding=(1, 1, 1, 1), value=0.0)
        )
        (actvn0): LeakyReLU(negative_slope=0.2, inplace=True)
        (conv1): ModulatedConv2d(
          (mlp_class_std): EqualLinear(
            (linear): Linear(in_features=256, out_features=49, bias=True)
          )
          (padding): ZeroPad2d(padding=(1, 1, 1, 1), value=0.0)
        )
        (actvn1): LeakyReLU(negative_slope=0.2, inplace=True)
      )
      (3): StyledConvBlock(
        (conv0): ModulatedConv2d(
          (mlp_class_std): EqualLinear(
            (linear): Linear(in_features=256, out_features=256, bias=True)
          )
          (padding): ZeroPad2d(padding=(1, 1, 1, 1), value=0.0)
        )
        (actvn0): LeakyReLU(negative_slope=0.2, inplace=True)
        (conv1): ModulatedConv2d(
          (mlp_class_std): EqualLinear(
            (linear): Linear(in_features=256, out_features=49, bias=True)
          )
          (padding): ZeroPad2d(padding=(1, 1, 1, 1), value=0.0)
        )
        (actvn1): LeakyReLU(negative_slope=0.2, inplace=True)
      )
      (4): StyledConvBlock(
        (conv0): ModulatedConv2d(
          (mlp_class_std): EqualLinear(
            (linear): Linear(in_features=256, out_features=256, bias=True)
          )
          (padding): ZeroPad2d(padding=(1, 1, 1, 1), value=0.0)
        )
        (actvn0): LeakyReLU(negative_slope=0.2, inplace=True)
        (conv1): ModulatedConv2d(
          (mlp_class_std): EqualLinear(
            (linear): Linear(in_features=256, out_features=49, bias=True)
          )
          (padding): ZeroPad2d(padding=(1, 1, 1, 1), value=0.0)
        )
        (actvn1): LeakyReLU(negative_slope=0.2, inplace=True)
      )
    )
    (netF): ModuleList(
      (0): Styled_F_ConvBlock(
        (conv0): ModulatedConv2d(
          (mlp_class_std): EqualLinear(
            (linear): Linear(in_features=256, out_features=49, bias=True)
          )
          (padding): ZeroPad2d(padding=(1, 1, 1, 1), value=0.0)
        )
        (actvn0): LeakyReLU(negative_slope=0.2, inplace=True)
        (conv1): ModulatedConv2d(
          (mlp_class_std): EqualLinear(
            (linear): Linear(in_features=256, out_features=128, bias=True)
          )
          (padding): ZeroPad2d(padding=(1, 1, 1, 1), value=0.0)
        )
      )
      (1): Styled_F_ConvBlock(
        (conv0): ModulatedConv2d(
          (mlp_class_std): EqualLinear(
            (linear): Linear(in_features=256, out_features=49, bias=True)
          )
          (padding): ZeroPad2d(padding=(1, 1, 1, 1), value=0.0)
        )
        (actvn0): LeakyReLU(negative_slope=0.2, inplace=True)
        (conv1): ModulatedConv2d(
          (mlp_class_std): EqualLinear(
            (linear): Linear(in_features=256, out_features=128, bias=True)
          )
          (padding): ZeroPad2d(padding=(1, 1, 1, 1), value=0.0)
        )
      )
      (2): Styled_F_ConvBlock(
        (conv0): ModulatedConv2d(
          (mlp_class_std): EqualLinear(
            (linear): Linear(in_features=256, out_features=49, bias=True)
          )
          (padding): ZeroPad2d(padding=(1, 1, 1, 1), value=0.0)
        )
        (actvn0): LeakyReLU(negative_slope=0.2, inplace=True)
        (conv1): ModulatedConv2d(
          (mlp_class_std): EqualLinear(
            (linear): Linear(in_features=256, out_features=128, bias=True)
          )
          (padding): ZeroPad2d(padding=(1, 1, 1, 1), value=0.0)
        )
      )
      (3): Styled_F_ConvBlock(
        (conv0): ModulatedConv2d(
          (mlp_class_std): EqualLinear(
            (linear): Linear(in_features=256, out_features=49, bias=True)
          )
          (padding): ZeroPad2d(padding=(1, 1, 1, 1), value=0.0)
        )
        (actvn0): LeakyReLU(negative_slope=0.2, inplace=True)
        (conv1): ModulatedConv2d(
          (mlp_class_std): EqualLinear(
            (linear): Linear(in_features=256, out_features=128, bias=True)
          )
          (padding): ZeroPad2d(padding=(1, 1, 1, 1), value=0.0)
        )
      )
      (4): Styled_F_ConvBlock(
        (conv0): ModulatedConv2d(
          (mlp_class_std): EqualLinear(
            (linear): Linear(in_features=256, out_features=49, bias=True)
          )
          (padding): ZeroPad2d(padding=(1, 1, 1, 1), value=0.0)
        )
        (actvn0): LeakyReLU(negative_slope=0.2, inplace=True)
        (conv1): ModulatedConv2d(
          (mlp_class_std): EqualLinear(
            (linear): Linear(in_features=256, out_features=128, bias=True)
          )
          (padding): ZeroPad2d(padding=(1, 1, 1, 1), value=0.0)
        )
      )
    )
    (cond_style): Sequential(
      (0): Conv2d(256, 128, kernel_size=(8, 6), stride=(1, 1))
      (1): LeakyReLU(negative_slope=0.1)
    )
    (image_style): Sequential(
      (0): Conv2d(256, 128, kernel_size=(8, 6), stride=(1, 1))
      (1): LeakyReLU(negative_slope=0.1)
    )
  )
)
ResUnetGenerator(
  (model): ResUnetSkipConnectionBlock(
    (model): Sequential(
      (0): Conv2d(8, 64, kernel_size=(3, 3), stride=(2, 2), padding=(1, 1), bias=False)
      (1): ReLU(inplace=True)
      (2): ResidualBlock(
        (relu): ReLU(inplace=True)
        (block): Sequential(
          (0): Conv2d(64, 64, kernel_size=(3, 3), stride=(1, 1), padding=(1, 1), bias=False)
          (1): BatchNorm2d(64, eps=1e-05, momentum=0.1, affine=True, track_running_stats=True)
          (2): ReLU(inplace=True)
          (3): Conv2d(64, 64, kernel_size=(3, 3), stride=(1, 1), padding=(1, 1), bias=False)
          (4): BatchNorm2d(64, eps=1e-05, momentum=0.1, affine=True, track_running_stats=True)
        )
      )
      (3): ResidualBlock(
        (relu): ReLU(inplace=True)
        (block): Sequential(
          (0): Conv2d(64, 64, kernel_size=(3, 3), stride=(1, 1), padding=(1, 1), bias=False)
          (1): BatchNorm2d(64, eps=1e-05, momentum=0.1, affine=True, track_running_stats=True)
          (2): ReLU(inplace=True)
          (3): Conv2d(64, 64, kernel_size=(3, 3), stride=(1, 1), padding=(1, 1), bias=False)
          (4): BatchNorm2d(64, eps=1e-05, momentum=0.1, affine=True, track_running_stats=True)
        )
      )
      (4): ResUnetSkipConnectionBlock(
        (model): Sequential(
          (0): Conv2d(64, 128, kernel_size=(3, 3), stride=(2, 2), padding=(1, 1), bias=False)
          (1): BatchNorm2d(128, eps=1e-05, momentum=0.1, affine=True, track_running_stats=True)
          (2): ReLU(inplace=True)
          (3): ResidualBlock(
            (relu): ReLU(inplace=True)
            (block): Sequential(
              (0): Conv2d(128, 128, kernel_size=(3, 3), stride=(1, 1), padding=(1, 1), bias=False)
              (1): BatchNorm2d(128, eps=1e-05, momentum=0.1, affine=True, track_running_stats=True)
              (2): ReLU(inplace=True)
              (3): Conv2d(128, 128, kernel_size=(3, 3), stride=(1, 1), padding=(1, 1), bias=False)
              (4): BatchNorm2d(128, eps=1e-05, momentum=0.1, affine=True, track_running_stats=True)
            )
          )
          (4): ResidualBlock(
            (relu): ReLU(inplace=True)
            (block): Sequential(
              (0): Conv2d(128, 128, kernel_size=(3, 3), stride=(1, 1), padding=(1, 1), bias=False)
              (1): BatchNorm2d(128, eps=1e-05, momentum=0.1, affine=True, track_running_stats=True)
              (2): ReLU(inplace=True)
              (3): Conv2d(128, 128, kernel_size=(3, 3), stride=(1, 1), padding=(1, 1), bias=False)
              (4): BatchNorm2d(128, eps=1e-05, momentum=0.1, affine=True, track_running_stats=True)
            )
          )
          (5): ResUnetSkipConnectionBlock(
            (model): Sequential(
              (0): Conv2d(128, 256, kernel_size=(3, 3), stride=(2, 2), padding=(1, 1), bias=False)
              (1): BatchNorm2d(256, eps=1e-05, momentum=0.1, affine=True, track_running_stats=True)
              (2): ReLU(inplace=True)
              (3): ResidualBlock(
                (relu): ReLU(inplace=True)
                (block): Sequential(
                  (0): Conv2d(256, 256, kernel_size=(3, 3), stride=(1, 1), padding=(1, 1), bias=False)
                  (1): BatchNorm2d(256, eps=1e-05, momentum=0.1, affine=True, track_running_stats=True)
                  (2): ReLU(inplace=True)
                  (3): Conv2d(256, 256, kernel_size=(3, 3), stride=(1, 1), padding=(1, 1), bias=False)
                  (4): BatchNorm2d(256, eps=1e-05, momentum=0.1, affine=True, track_running_stats=True)
                )
              )
              (4): ResidualBlock(
                (relu): ReLU(inplace=True)
                (block): Sequential(
                  (0): Conv2d(256, 256, kernel_size=(3, 3), stride=(1, 1), padding=(1, 1), bias=False)
                  (1): BatchNorm2d(256, eps=1e-05, momentum=0.1, affine=True, track_running_stats=True)
                  (2): ReLU(inplace=True)
                  (3): Conv2d(256, 256, kernel_size=(3, 3), stride=(1, 1), padding=(1, 1), bias=False)
                  (4): BatchNorm2d(256, eps=1e-05, momentum=0.1, affine=True, track_running_stats=True)
                )
              )
              (5): ResUnetSkipConnectionBlock(
                (model): Sequential(
                  (0): Conv2d(256, 512, kernel_size=(3, 3), stride=(2, 2), padding=(1, 1), bias=False)
                  (1): BatchNorm2d(512, eps=1e-05, momentum=0.1, affine=True, track_running_stats=True)
                  (2): ReLU(inplace=True)
                  (3): ResidualBlock(
                    (relu): ReLU(inplace=True)
                    (block): Sequential(
                      (0): Conv2d(512, 512, kernel_size=(3, 3), stride=(1, 1), padding=(1, 1), bias=False)
                      (1): BatchNorm2d(512, eps=1e-05, momentum=0.1, affine=True, track_running_stats=True)
                      (2): ReLU(inplace=True)
                      (3): Conv2d(512, 512, kernel_size=(3, 3), stride=(1, 1), padding=(1, 1), bias=False)
                      (4): BatchNorm2d(512, eps=1e-05, momentum=0.1, affine=True, track_running_stats=True)
                    )
                  )
                  (4): ResidualBlock(
                    (relu): ReLU(inplace=True)
                    (block): Sequential(
                      (0): Conv2d(512, 512, kernel_size=(3, 3), stride=(1, 1), padding=(1, 1), bias=False)
                      (1): BatchNorm2d(512, eps=1e-05, momentum=0.1, affine=True, track_running_stats=True)
                      (2): ReLU(inplace=True)
                      (3): Conv2d(512, 512, kernel_size=(3, 3), stride=(1, 1), padding=(1, 1), bias=False)
                      (4): BatchNorm2d(512, eps=1e-05, momentum=0.1, affine=True, track_running_stats=True)
                    )
                  )
                  (5): ResUnetSkipConnectionBlock(
                    (model): Sequential(
                      (0): Conv2d(512, 512, kernel_size=(3, 3), stride=(2, 2), padding=(1, 1), bias=False)
                      (1): ReLU(inplace=True)
                      (2): ResidualBlock(
                        (relu): ReLU(inplace=True)
                        (block): Sequential(
                          (0): Conv2d(512, 512, kernel_size=(3, 3), stride=(1, 1), padding=(1, 1), bias=False)
                          (1): BatchNorm2d(512, eps=1e-05, momentum=0.1, affine=True, track_running_stats=True)
                          (2): ReLU(inplace=True)
                          (3): Conv2d(512, 512, kernel_size=(3, 3), stride=(1, 1), padding=(1, 1), bias=False)
                          (4): BatchNorm2d(512, eps=1e-05, momentum=0.1, affine=True, track_running_stats=True)
                        )
                      )
                      (3): ResidualBlock(
                        (relu): ReLU(inplace=True)
                        (block): Sequential(
                          (0): Conv2d(512, 512, kernel_size=(3, 3), stride=(1, 1), padding=(1, 1), bias=False)
                          (1): BatchNorm2d(512, eps=1e-05, momentum=0.1, affine=True, track_running_stats=True)
                          (2): ReLU(inplace=True)
                          (3): Conv2d(512, 512, kernel_size=(3, 3), stride=(1, 1), padding=(1, 1), bias=False)
                          (4): BatchNorm2d(512, eps=1e-05, momentum=0.1, affine=True, track_running_stats=True)
                        )
                      )
                      (4): Upsample(scale_factor=2.0, mode=nearest)
                      (5): Conv2d(512, 512, kernel_size=(3, 3), stride=(1, 1), padding=(1, 1), bias=False)
                      (6): BatchNorm2d(512, eps=1e-05, momentum=0.1, affine=True, track_running_stats=True)
                      (7): ReLU(inplace=True)
                      (8): ResidualBlock(
                        (relu): ReLU(inplace=True)
                        (block): Sequential(
                          (0): Conv2d(512, 512, kernel_size=(3, 3), stride=(1, 1), padding=(1, 1), bias=False)
                          (1): BatchNorm2d(512, eps=1e-05, momentum=0.1, affine=True, track_running_stats=True)
                          (2): ReLU(inplace=True)
                          (3): Conv2d(512, 512, kernel_size=(3, 3), stride=(1, 1), padding=(1, 1), bias=False)
                          (4): BatchNorm2d(512, eps=1e-05, momentum=0.1, affine=True, track_running_stats=True)
                        )
                      )
                      (9): ResidualBlock(
                        (relu): ReLU(inplace=True)
                        (block): Sequential(
                          (0): Conv2d(512, 512, kernel_size=(3, 3), stride=(1, 1), padding=(1, 1), bias=False)
                          (1): BatchNorm2d(512, eps=1e-05, momentum=0.1, affine=True, track_running_stats=True)
                          (2): ReLU(inplace=True)
                          (3): Conv2d(512, 512, kernel_size=(3, 3), stride=(1, 1), padding=(1, 1), bias=False)
                          (4): BatchNorm2d(512, eps=1e-05, momentum=0.1, affine=True, track_running_stats=True)
                        )
                      )
                    )
                  )
                  (6): Upsample(scale_factor=2.0, mode=nearest)
                  (7): Conv2d(1024, 256, kernel_size=(3, 3), stride=(1, 1), padding=(1, 1), bias=False)
                  (8): BatchNorm2d(256, eps=1e-05, momentum=0.1, affine=True, track_running_stats=True)
                  (9): ReLU(inplace=True)
                  (10): ResidualBlock(
                    (relu): ReLU(inplace=True)
                    (block): Sequential(
                      (0): Conv2d(256, 256, kernel_size=(3, 3), stride=(1, 1), padding=(1, 1), bias=False)
                      (1): BatchNorm2d(256, eps=1e-05, momentum=0.1, affine=True, track_running_stats=True)
                      (2): ReLU(inplace=True)
                      (3): Conv2d(256, 256, kernel_size=(3, 3), stride=(1, 1), padding=(1, 1), bias=False)
                      (4): BatchNorm2d(256, eps=1e-05, momentum=0.1, affine=True, track_running_stats=True)
                    )
                  )
                  (11): ResidualBlock(
                    (relu): ReLU(inplace=True)
                    (block): Sequential(
                      (0): Conv2d(256, 256, kernel_size=(3, 3), stride=(1, 1), padding=(1, 1), bias=False)
                      (1): BatchNorm2d(256, eps=1e-05, momentum=0.1, affine=True, track_running_stats=True)
                      (2): ReLU(inplace=True)
                      (3): Conv2d(256, 256, kernel_size=(3, 3), stride=(1, 1), padding=(1, 1), bias=False)
                      (4): BatchNorm2d(256, eps=1e-05, momentum=0.1, affine=True, track_running_stats=True)
                    )
                  )
                )
              )
              (6): Upsample(scale_factor=2.0, mode=nearest)
              (7): Conv2d(512, 128, kernel_size=(3, 3), stride=(1, 1), padding=(1, 1), bias=False)
              (8): BatchNorm2d(128, eps=1e-05, momentum=0.1, affine=True, track_running_stats=True)
              (9): ReLU(inplace=True)
              (10): ResidualBlock(
                (relu): ReLU(inplace=True)
                (block): Sequential(
                  (0): Conv2d(128, 128, kernel_size=(3, 3), stride=(1, 1), padding=(1, 1), bias=False)
                  (1): BatchNorm2d(128, eps=1e-05, momentum=0.1, affine=True, track_running_stats=True)
                  (2): ReLU(inplace=True)
                  (3): Conv2d(128, 128, kernel_size=(3, 3), stride=(1, 1), padding=(1, 1), bias=False)
                  (4): BatchNorm2d(128, eps=1e-05, momentum=0.1, affine=True, track_running_stats=True)
                )
              )
              (11): ResidualBlock(
                (relu): ReLU(inplace=True)
                (block): Sequential(
                  (0): Conv2d(128, 128, kernel_size=(3, 3), stride=(1, 1), padding=(1, 1), bias=False)
                  (1): BatchNorm2d(128, eps=1e-05, momentum=0.1, affine=True, track_running_stats=True)
                  (2): ReLU(inplace=True)
                  (3): Conv2d(128, 128, kernel_size=(3, 3), stride=(1, 1), padding=(1, 1), bias=False)
                  (4): BatchNorm2d(128, eps=1e-05, momentum=0.1, affine=True, track_running_stats=True)
                )
              )
            )
          )
          (6): Upsample(scale_factor=2.0, mode=nearest)
          (7): Conv2d(256, 64, kernel_size=(3, 3), stride=(1, 1), padding=(1, 1), bias=False)
          (8): BatchNorm2d(64, eps=1e-05, momentum=0.1, affine=True, track_running_stats=True)
          (9): ReLU(inplace=True)
          (10): ResidualBlock(
            (relu): ReLU(inplace=True)
            (block): Sequential(
              (0): Conv2d(64, 64, kernel_size=(3, 3), stride=(1, 1), padding=(1, 1), bias=False)
              (1): BatchNorm2d(64, eps=1e-05, momentum=0.1, affine=True, track_running_stats=True)
              (2): ReLU(inplace=True)
              (3): Conv2d(64, 64, kernel_size=(3, 3), stride=(1, 1), padding=(1, 1), bias=False)
              (4): BatchNorm2d(64, eps=1e-05, momentum=0.1, affine=True, track_running_stats=True)
            )
          )
          (11): ResidualBlock(
            (relu): ReLU(inplace=True)
            (block): Sequential(
              (0): Conv2d(64, 64, kernel_size=(3, 3), stride=(1, 1), padding=(1, 1), bias=False)
              (1): BatchNorm2d(64, eps=1e-05, momentum=0.1, affine=True, track_running_stats=True)
              (2): ReLU(inplace=True)
              (3): Conv2d(64, 64, kernel_size=(3, 3), stride=(1, 1), padding=(1, 1), bias=False)
              (4): BatchNorm2d(64, eps=1e-05, momentum=0.1, affine=True, track_running_stats=True)
            )
          )
        )
      )
      (5): Upsample(scale_factor=2.0, mode=nearest)
      (6): Conv2d(128, 4, kernel_size=(3, 3), stride=(1, 1), padding=(1, 1), bias=False)
    )
  )
)
train_PBAFN_e2e_fs.py:105: DeprecationWarning: `np.float` is a deprecated alias for the builtin `float`. To silence this warning, use `float` by itself. Doing this will not modify any behavior and is safe. If you specifically wanted the numpy scalar type, use `np.float64` here.
Deprecated in NumPy 1.20; for more details and guidance: https://numpy.org/devdocs/release/1.20.0-notes.html#deprecations
…
